mlp_mnist.pth (torch, 409521 bytes, 4 tensors)

fc1.weight f4 [128, 784]
00000000: a2e6 08bd 50c2 fd3b 1cfa 053c b095 0ebd
00000010: daa7 84bc 2230 06bd 0377 91bc 18b0 80bb
00000020: 2d9c 023d 1c4d 753c 13de e8bc 50fa 2abb
00000030: 72c9 2d3c 5d41 81bc aa9e 0abd a971 1bbd
00000040: 98d4 7c3c 06f0 bb3c 44ff 01bc 6058 91ba
00000050: 38e4 bebc 26ef e23c 70f6 d33b 06ba 18bc
00000060: 0021 bd39 e4b5 843c 0257 d93c cce7 c73c
00000070: aeeb cabc facd d5bc 6ede f33c 6a17 cdbc
00000080: a73e 7abc c4e9 03bd 5e4c e13c a76d 61bb
00000090: 019d 3cbd da3d 4abb 86f8 eabd 256a 21be
000000a0: cc46 4fbe 899e 16be 0b58 56bd 5115 cabd
000000b0: 9ccf 13be 2a67 30be ad55 36be 1196 7abe
000000c0: 2b06 d5bd d59d 1dbe 3026 8bbd e66c fe3c
000000d0: a023 a9bc a073 29bc 2672 46bc 780f ca3b
000000e0: cf2b 08bd 60d8 3b3c d8f9 4cbd 67c9 0cbc
000000f0: 386a f4bc 61c8 d3bc 918e 3fbc e0ba 88bd
00000100: ee5c fabd 14fe 3cbe 05e9 21be ddea abbd
00000110: 63a6 963d d219 343d f8b3 ccbd 4768 ccbc
00000120: 83eb f33c cec8 2d3d 74ec 823d 9af4 bb3d
00000130: 0a64 b93c 5911 febd 0ae3 37bd 6906 973b
00000140: 7efd 1cbd 596b 1f3c e8b8 90bb ce42 963c
00000150: acd9 0fbd f43b 08bd 47c1 983d c8bc 013c
00000160: d9c1 a1bc 6a50 54bd 2bb6 57bc 42a8 b83d
00000170: 4987 d73d 8eea 7dbb f2ee 9b3d 5fbf f93c
00000180: 0c9a 303e 6a1a 593d 8558 d73d 984b e93d
00000190: 7991 eb3d ed8e f63d 8e95 393e 85f7 923d
000001a0: 1b10 2e3e 13c6 463d bc69 e0bb 52f0 bd3d
000001b0: 1d54 303d 65d0 233d 5b42 46bd 9fb1 063d
000001c0: 9cc6 0b3c ccc2 a93c dd2d 153e f3f1 253e
000001d0: d32a 64bc 8116 273d e0ad 14bd 387e ce3b
000001e0: 9f21 253d 74e7 973d a20b 7f3d 793f 823d
000001f0: 9c89 b13d 9eca 433d b527 bf3d 4827 f73d
00000200: 1843 d73d 5364 cf3b 75ed 873d e110 c33c
00000210: 2ae6 033d 808a 633d 9cd0 273d 4d94 15bd
00000220: 0e6b 713d 25df 723d b2d4 de3d decf 21bd
00000230: 10e2 98bc a66f 23bc a0eb 833d 28fe 7e3d
00000240: eed0 1bbd 5cc1 9a3d 528a 2c3d 65b9 0b3e
00000250: b0a8 f93c 0ae7 a83d 371b 9cbb 088f aa3c
00000260: 8c27 053d 47d6 3bbc 3a71 583d 89d5 7a3b
00000270: 8c8d ec3b e242 023d 422f 2fbc 490d 4abc
00000280: a664 9f3c f39d ccba e6c2 7cbd 7fda a8bd
00000290: 83a3 52bd 02c4 933b 02ca 8a3d 4545 40bd
000002a0: b711 9bbc 09f6 e73d cff8 a53d 65d8 973d
000002b0: 4163 403d 150f 963d 7327 933d 758f 6a3d
000002c0: 50a6 2e3d e5b3 a23c 6581 d63c 014a 71bc
000002d0: a366 92bb dfb8 0239 5c83 00bd 325a 6abc
000002e0: 386a 22bd 3033 873c 23c0 893c 9719 f83c
000002f0: 7f4d 783c 046f 8a3c 9830 14bd 9e35 143d
00000300: 8808 983d 88db 823d 1602 c63c 1c59 b5bc
00000310: 8637 1d3d 6c33 fb3d 4f0f bc3c c911 ea3d
00000320: cd7f a2bb 0add a8bc 697b 053d 3dee 843d
00000330: 04d7 1abb 2d78 b43c 96e4 183d 1e8a 47bd
00000340: 2d0f b23b 10c0 68bc d4d2 bebb cb8a de3c
00000350: ae93 1a3c b456 debc e4e1 c13b bb31 773c
00000360: b4cb 323d b29b dbbc 86b0 d2bc 4b42 9b3d
00000370: 12b8 943d dcb8 383d 42d6 fe3c 406e 9fbc
00000380: 325e b0bd 47d1 a33d 6d02 84bc 9192 c33d
00000390: 9c2e 87bc 4c1d f9bc e4cf 2e3c 17a8 a93d
000003a0: 33bb 33bc 884a 1e3d d520 8f3c 3d53 09bb
000003b0: 5ca8 bd3d b091 003d 29d2 12bb dfbb 533d
000003c0: 600d 063c 25b4 a03c 9832 203d d03a db3c
000003d0: 484d 363d 45ed b43c 1949 b83d 1529 4c3d
000003e0: 1346 f33d 369a f83d 96b1 203e 1a4f c93d
000003f0: 3141 9e3a 3d87 053e 576a 323d b10c c13d
-0.033423074 0.007744111 0.0081773065 -0.034810722 -0.01619332 -0.032760747 -0.017756945 -0.003927242
0.031887222 0.014971998 -0.028426206 -0.002608914 0.01060711 -0.015778238 -0.03384272 -0.03795019
0.015431546 0.0229416 -0.007934395 -0.001108896 -0.023302183 0.027701925 0.0064685866 -0.009321695
0.00036073476 0.016200013 0.026530746 0.024402522 -0.024770584 -0.026099194 0.029769149 -0.025035579
-0.015273727 -0.03220536 0.027502235 -0.0034397633 -0.046048168 -0.003085962 -0.11473183 -0.15763147
-0.2024185 -0.14708914 -0.052330058 -0.09867347 -0.14434665 -0.17226854 -0.1780612 -0.24471308
-0.10401567 -0.1539224 -0.06794393 0.031057786 -0.02064687 -0.010342509 -0.012112176 0.006166395
-0.033244904 0.011465162 -0.050042957 -0.00859294 -0.029835805 -0.025852384 -0.011691705 -0.066762686
-0.12224756 -0.18456298 -0.15811546 -0.08394406 0.073559545 0.043969937 -0.09995264 -0.024952067
0.029775387 0.04242783 0.06392756 0.091775134 0.02263071 -0.124056526 -0.044894256 0.0046089184
-0.038327686 0.0097301835 -0.004416574 0.018342402 -0.035119697 -0.0332603 0.0745874 0.007918544
-0.019745754 -0.0518345 -0.013165991 0.09016468 0.105238505 -0.0038744542 0.076139346 0.03048676
0.17246264 0.053003706 0.10514931 0.113913715 0.11502356 0.1203898 0.18123457 0.07176117
0.16998331 0.048528742 -0.006848542 0.09274353 0.043048967 0.039993662 -0.048403125 0.032884236
0.008531239 0.02072277 0.14568277 0.16205578 -0.013926226 0.040792946 -0.036298633 0.0063016675
0.040315267 0.07417193 0.062266953 0.06359763 0.08668825 0.047800653 0.093337454 0.12068039
0.10510844 0.0063290983 0.06637088 0.02381176 0.032201923 0.055552006 0.04097043 -0.036518384
0.058939986 0.05929484 0.10880412 -0.03950488 -0.018662483 -0.0099753495 0.06441426 0.0622541
-0.038041048 0.075564116 0.0421241 0.13644941 0.030475944 0.08247192 -0.0047639864 0.020820156
0.032508418 -0.011464662 0.052842356 0.003827425 0.007219022 0.031802066 -0.0106924195 -0.012332269
0.019457173 -0.0015611037 -0.061709307 -0.082448 -0.05142547 0.00450945 0.06776811 -0.04694106
-0.018929346 0.11326224 0.08104097 0.07414321 0.046969656 0.073270954 0.07185259 0.057265718
0.042639077 0.019861171 0.026184747 -0.014727117 -0.0044678017 0.00012466636 -0.031375274 -0.014303731
-0.03965208 0.0165039 0.01681525 0.03028564 0.015155195 0.01689864 -0.036179155 0.036183946
0.07423502 0.063895285 0.024170917 -0.022137217 0.03838303 0.12265667 0.022956518 0.114291735
-0.0049590827 -0.020613212 0.032588396 0.06490753 -0.0023626694 0.02202996 0.03732737 -0.048715703
0.005433938 -0.0142059475 -0.0058234725 0.027165791 0.009434624 -0.027140953 0.005916821 0.01508754
0.043651298 -0.02680764 -0.025718939 0.07581004 0.07261671 0.04509817 0.031108025 -0.019461751
-0.08611716 0.07998901 -0.016114438 0.0954944 -0.016501717 -0.030409478 0.010669682 0.08284014
-0.010969925 0.038645297 0.01747171 -0.0020954155 0.092606276 0.03138894 -0.0022403097 0.05169284
0.0081819 0.01961715 0.03911075 0.026761442 0.044507295 0.022085795 0.08998317 0.049843866
0.118786 0.121387884 0.15692744 0.098295406 0.0012073872 0.1303987 0.043558445 0.09426249

fc1.bias f4 [128]
00000000: 4cd3 103d 5185 d0bd 385b 3c3d f570 0d3e
00000010: 0a5d 393d b63f d53d c156 783d d709 0c3e
00000020: 57e0 98bb e6a6 633d 4fb5 4abc 08be 84bd
00000030: e989 4e3c dbe3 223d 6332 503e 9948 da3d
00000040: 56cd 443d 9d70 99bc 5944 903d c9da a4bc
00000050: 3add ccba f4ff a8bd f69b 1bbc a340 3fbd
00000060: 1b79 963d 725d 11bd d964 323d b87f 8bbc
00000070: c2b6 bcbd 9f2c a13d 2fc7 b1bc eefa ad3d
00000080: 6cfa 23bd f847 823d 7e3f 1a3e 6427 8f3d
00000090: 4f85 e43d a682 b8bd 3adb f43d ef2c da3d
000000a0: 827f 32bd 59e4 8abc 4116 283d a2be 4a3d
000000b0: 460c e83c dc28 6a3d ffa2 97bd 7e92 2c3d
000000c0: 4ba7 0d3d ceba 213e 4e74 c5bc cbcd 113d
000000d0: d7de c2bc 5829 0b3c 1821 f0bb a65e 7cbd
000000e0: 3112 78bd 63fc b33d 7434 0b3d 3eca cc3d
000000f0: 09a6 f63d 3097 cdbd 47d1 883c 0656 e53d
00000100: 5096 e6bc fa6c 613d c62f 89bc b35c 28be
00000110: 75c0 0e3e 6d0f 26be 98f6 fe3d 5c7f 4abd
00000120: 11b5 bebd c78e 26be 4ead b13d 7890 2c3e
00000130: 7313 283e 01a2 27bd 7793 803d 611d 0b3e
00000140: b608 16bd 4553 083c 58da 043e 01e6 3dbd
00000150: ffbd 8c3d 86fb 0dbd 824f 82bd c5da 103d
00000160: f8f6 5a3e 657a afbc 15de 863e 6f7a 283e
00000170: e6c4 03be 65d1 f43c 07cb ef3c af8f 49bc
00000180: cd37 5abd be46 0cbc f51d 90bd b56d 8f3c
00000190: b14e e13c b743 ca3d 9914 6c3c e0e9 04bd
000001a0: e17e 8f3d 1547 7d3e 50f6 a7bd 905b 203e
000001b0: 4fa4 b13d 406f 0d3d 9f43 67bb a312 043d
000001c0: f3f5 29bd 3ea9 f53d a09a 7b3c f9fb 403e
000001d0: bf3a 1dbd dfb7 51bc 67e3 e43d a74c edbc
000001e0: 4163 d13d 4b5c c93d b6b3 0f3d 6aa7 67ba
000001f0: 1b5d b53d 1310 063d 393d f03d f4d2 433e
0.03535776 -0.10181678 0.04598543 0.13812621 0.045254745 0.104125425 0.06062961 0.13675629
-0.0046654153 0.05557909 -0.012372329 -0.06481558 0.0126061225 0.03976808 0.20331721 0.10658378
0.048047386 -0.018730456 0.07044286 -0.020123856 -0.0015629895 -0.08251944 -0.009497633 -0.0466925
0.07347318 -0.035489507 0.043553207 -0.017028674 -0.09214546 0.07869839 -0.021701423 0.08495127
-0.040033743 0.06361383 0.15063283 0.06989935 0.11158239 -0.09009294 0.11955877 0.10653102
-0.043578632 -0.016954588 0.041036848 0.049498208 0.028326165 0.057167873 -0.07404136 0.042131893
0.03458337 0.15793917 -0.02410331 0.03559665 -0.023787899 0.008493744 -0.007328164 -0.0616137
-0.060564224 0.08788373 0.03398557 0.09999512 0.120433874 -0.10038602 0.016701354 0.11198048
-0.028147846 0.05503557 -0.016746413 -0.16441612 0.13940604 -0.16216822 0.12449378 -0.049437866
-0.093118794 -0.16265403 0.08675633 0.16851985 0.1641367 -0.040925983 0.06278127 0.13585426
-0.0366294 0.008320634 0.12973917 -0.046361927 0.068721764 -0.0346637 -0.06362821 0.035364885
0.21383274 -0.021420667 0.2634131 0.16452955 -0.1286808 0.029885003 0.029271616 -0.012302323
-0.053275872 -0.008561788 -0.07036964 0.017508367 0.027503343 0.09876197 0.014409208 -0.032449603
0.07006622 0.24734147 -0.08201277 0.15659928 0.086739175 0.034529924 -0.0035288108 0.032244336
-0.04149432 0.11995171 0.01535669 0.1884612 -0.038386103 -0.012800186 0.11176186 -0.028967215
0.10224009 0.098320566 0.035083495 -0.00088368973 0.08855649 0.032730173 0.11730427 0.19123441

fc2.weight f4 [10, 128]
00000000: dd3a 00be a37b 293e 419b a1be 1202 8cbe
00000010: d079 7f3d b98c 9bbd 2d32 413e f8e2 4c3d
00000020: 7e03 2ebe 1d00 a4be 4bd0 02bf a060 04be
00000030: d146 3a3d 1a2b 1c3e 0c5f c7bd 3201 733d
00000040: 4647 aebe becd 103e aa54 913d e8ff 313d
00000050: caec 01be 3ed3 cc3d 9459 263e f799 7a3a
00000060: 63bd f3be 10d9 15bf 3e78 fdbe 7f96 443e
00000070: eca7 9fbc 2cbe ecbd 8e9f 12bf 9934 673e
00000080: 47c5 fdbe 8c97 e23d bd46 c1be 06ab da3d
00000090: b0a5 dc3d 930b 7dbc 3ca2 81be 5341 0c3d
000000a0: 8b76 68be cb06 163d fcca 1c3e f8ce e4be
000000b0: f6c5 403d f9eb 243e 9649 053e be9b da3c
000000c0: e42a a9bd ea7e 3c3e 5aa2 30be 3242 1b3d
000000d0: 0e8a ff3d a75d df3d 74b1 983c ec04 15be
000000e0: 3448 0c3e 0d6a 99be ff36 c13b 0bdb de3d
000000f0: 89a4 06ba cc69 56bc 475a 65be e8c0 293e
00000100: dcf3 883d c33c 593e 9c11 8f3d 2d39 233e
00000110: 6183 53be fd9c a53d 1916 0dbe 8fb2 363e
00000120: 1083 8bbc 0fe5 0f3d 0fc7 0b3e db3f 74be
00000130: 6a1f c4be df75 003d 36ad 2ebc f143 5bbe
00000140: cd97 ef3d eda6 7e3b 50ae 5abe d057 ad3d
00000150: 4d1a e03d f78b 24bd 0663 143e c9da cf3d
00000160: 958f 3c3e 7918 22bd f656 f2bd 9a50 72be
00000170: a90d e9bd a1f9 5f3d 1e66 cebd 3b5f ca3d
00000180: 9832 fc3c e43d 40be c2aa dbbc 4017 043e
00000190: 19f7 9d3d 76f5 abbe 1a6d b4bc 3213 263d
000001a0: 3145 5e3e 6ebd 0cbf b287 563c cb50 fcbc
000001b0: b083 c53d 30e4 4fbc 4b40 64be 7ba7 263e
000001c0: b744 5c3e 1f3f 9abe 603e 203e 2259 bebd
000001d0: 2013 b1be a1ba 18bc 4be1 d5be 6960 033d
000001e0: ee5f 18be e50d e43d 7365 3bbe c3da cebe
000001f0: 9c9c 8abd fec5 b93d 0d91 8bbe aec2 9dbd
00000200: edd2 9fbc f341 55be 2f5e e23d 9d71 5e3e
00000210: 821f b6be 8d9e 243b 458d 153d 2f01 84be
00000220: bab3 d1bb d5cb 653d 1486 4e3e 8132 a23d
00000230: 8517 12be 5f30 bcbe f02f 8abb f408 d3be
00000240: 3f42 2c3e 06a5 38be f7d2 8bbe 5f05 1ebd
00000250: a448 a1bc dd01 bc3d 7052 573e f71c 91be
00000260: 181c 133d 0625 5f3b f566 afbc 78b6 c43d
00000270: 9a52 46be 8449 b1be dfce 00bd c1a3 07bf
00000280: 5d49 5e3e 6a91 4a3e f6bd e13b 35f1 2ebe
00000290: fc66 a7bd ee32 b2bb 3538 e63d 8aea 6abe
000002a0: d986 953d 83a6 8bbd 1274 53be 4f3d 403e
000002b0: ed4d 6f3e 4d9f d6bd b028 f1bd 19ca 8cbe
000002c0: 225c da3d f43a c03e 8e15 9c3d cf43 95bb
000002d0: 34d1 1a3e 6124 e5bc 8939 993e cc3b d73d
000002e0: e58f 3abe 3310 51bb 8735 213e f581 b4bd
000002f0: 8f66 50bc e69c 42be b5aa af3d 2ebc 443d
00000300: 6a33 6bbe 4685 ca3e 73e0 bcbd 1dbd fbbd
00000310: 143a 1e3e 68c1 62be d87b d93e 86ae fcbd
00000320: 85f0 16be 5016 72be e02b 61be bfee 7a3e
00000330: bc0c 363d d159 8cbe 5dff 533c 93ce 90be
00000340: cd81 2c3d 3f4c cd3d 5216 2cbe eebb 143d
00000350: 879d 2fbe f697 19be 2b8d 55bc 8e54 28be
00000360: 0c07 723e 4c54 c1bb 9900 363e 1ed6 433e
00000370: 3f78 c6bc d55b dc3e be60 7ebe ac8d 41be
00000380: 1989 b6be dab0 bd3d 97de 22bd 3776 b6be
00000390: 5465 993d 05fb 223c a1be 81bd fc54 b93d
000003a0: c99a bb3d 15d9 44be bc07 a33e eb53 9ebb
000003b0: 4f23 a1be 2687 9abe b090 053e 6327 c93d
000003c0: 5024 4dbd ed11 5c3d 13e7 70be b8d5 8bbe
000003d0: 3cb7 3c3e 5cc2 cb3c 13e6 32be f869 3abe
000003e0: aeda a6be 08b0 28bd b86a 3a3c d876 463e
000003f0: 87bb 8e3d 1c35 61be d126 aa3e 6142 833e
-0.12522455 0.1655107 -0.31563762 -0.2734533 0.06237203 -0.075952 0.18866797 0.05002114
-0.1699352 -0.32031336 -0.5109908 -0.12927485 0.045477692 0.15250817 -0.09734926 0.05932731
-0.34038752 0.14140984 0.070962265 0.04345694 -0.12687984 0.10001229 0.16245109 0.0009559686
-0.47605428 -0.58534336 -0.495058 0.19198035 -0.019489251 -0.1155971 -0.5727471 0.22578658
-0.49564573 0.110640615 -0.37749282 0.106771514 0.1077379 -0.015444654 -0.25319088 0.034241986
-0.2270147 0.036627572 0.15311807 -0.44689155 0.04706379 0.16105641 0.13016352 0.026685592
-0.08260134 0.18407789 -0.17249432 0.037904926 0.12477504 0.10906535 0.018639304 -0.14552659
0.13699418 -0.29963723 0.0058964486 0.10881623 -0.0005136212 -0.013086747 -0.2239772 0.16577494
0.066871375 0.21214585 0.069857806 0.1593978 -0.20655586 0.08086584 -0.13777961 0.17841552
-0.017030269 0.035130557 0.13650154 -0.23852484 -0.38305217 0.03136241 -0.010661414 -0.21412636
0.116988756 0.003885682 -0.21355557 0.084640145 0.109425165 -0.040172543 0.144909 0.10149152
0.18414147 -0.03957412 -0.11832993 -0.2366356 -0.113795586 0.054681424 -0.10078071 0.09881445
0.030785844 -0.1877361 -0.026814822 0.12899494 0.07713146 -0.3358571 -0.02202468 0.04054565
0.21706082 -0.54976547 0.013093876 -0.030800244 0.09644258 -0.0126886815 -0.22290151 0.16274826
0.21510588 -0.30126283 0.15648794 -0.092943445 -0.34584904 -0.00932184 -0.41773447 0.032074366
-0.14880344 0.11135463 -0.18300419 -0.40401277 -0.06768152 0.09070967 -0.27259102 -0.07703148
-0.019509757 -0.20825939 0.1105312 0.21723028 -0.35570914 0.0025118918 0.03651168 -0.25782153
-0.006399599 0.056102592 0.20168334 0.07919789 -0.14266784 -0.36755654 -0.0042171404 -0.41217768
0.16822146 -0.18031701 -0.2730939 -0.03857934 -0.019687958 0.09180043 0.21027541 -0.2834241
0.035915464 0.0034049167 -0.021411398 0.09605116 -0.19367447 -0.346264 -0.031447288 -0.52984244
0.21707673 0.19782034 0.0068891 -0.170842 -0.081739396 -0.0054382 0.112411894 -0.22941032
0.07301111 -0.06818869 -0.20649746 0.18773387 0.2336957 -0.10479603 -0.11775339 -0.27497938
0.10662104 0.37544978 0.07621299 -0.0045552026 0.15118867 -0.027971448 0.29926708 0.10509452
-0.18218954 -0.0031900525 0.15743075 -0.0881385 -0.012719764 -0.19005165 0.08577482 0.048031025
-0.22968832 0.39554805 -0.09222498 -0.1229193 0.15451843 -0.22144091 0.42477298 -0.12337975
-0.14740188 -0.23641324 -0.21989393 0.24505137 0.04444574 -0.27412274 0.012939301 -0.28282604
0.042115975 0.100243084 -0.1680539 0.036312036 -0.17149936 -0.14999375 -0.013034145 -0.16438505
0.236355 -0.0058999415 0.17773665 0.19124648 -0.02422726 0.43038812 -0.24841592 -0.189017
-0.35651472 0.092622474 -0.03976306 -0.35637066 0.0749003 0.009947543 -0.06335188 0.090494126
0.09160382 -0.19223435 0.31841838 -0.004831781 -0.3147225 -0.30181235 0.13043475 0.098219655
-0.05008346 0.053728033 -0.23525648 -0.27311492 0.18429273 0.024872951 -0.17470579 -0.18204486
-0.32588714 -0.0411835 0.011377983 0.19381273 0.06969362 -0.21992916 0.3323274 0.2563658

fc2.bias f4 [10]
00000000: 1fdd 3ebe 180a 533c 7657 cebd e02d 86bd
00000010: 79d1 0b3e 13aa 053e d0bc 90bd 2e89 723d
00000020: 8f2b 353c 82ba cabd
-0.18639039 0.0128808245 -0.100752756 -0.06551719 0.13654126 0.1305316 -0.07067263 0.059212856
0.011057748 -0.09898855
