quantization/mlp_mnist.pth (torch, 409521 bytes, 4 tensors)

fc1.weight f4 [128, 784]
000000 84 eb 77 3c 14 c6 96 bb df 71 09 3d 89 3e 07 3d
       0.015131835 -0.0046012495 0.03355586 0.033018623
000010 30 58 0e 3c 96 c0 9c 3c d0 79 d5 bc 3e d1 f8 3c
       0.008688018 0.0191348 -0.026059061 0.030373212
000020 d8 83 4b 3c 4c 21 d9 3c 9d 6c 0d bd ce 35 e0 3c
       0.012421571 0.026505135 -0.03452741 0.027369406
000030 68 a3 a5 3d 55 a3 91 3d 78 89 37 bd db 1a d0 3c
       0.08087808 0.07111231 -0.044808835 0.02540343
000040 8e c4 9c 3c 70 98 47 bb d2 b8 57 bc 7a 6d a5 3c
       0.019136693 -0.003045585 -0.013166623 0.020193804
000050 96 9f b5 3c 0a e1 8b 3c 7a 8f a4 3c 08 20 b6 3c
       0.022170823 0.01707508 0.020087946 0.02223207
000060 c0 fe 90 3c 65 30 a9 bc 2a 53 c4 3c 08 e9 ea 3b
       0.0176996 -0.02065296 0.023965437 0.007168893
000070 d8 56 db bc bf 80 0f bd 04 5b 0a bd dc 9f d9 bb
       -0.026774809 -0.03503489 -0.033778206 -0.006641371
000080 91 5b a8 ba 17 4d 1e 3d df 55 e2 3d 83 a2 89 3d
       -0.0012844672 0.038647737 0.11051535 0.0672045
000090 a6 30 fe 3d a4 a9 af 3c 23 1a e9 3d 42 e9 29 3e
       0.12411623 0.021443196 0.11381938 0.16592887
0000a0 96 31 74 3e 5b aa 80 3e 9e 0a 87 3d ea 63 e9 3d
       0.2384704 0.2512997 0.06593822 0.1139601
0000b0 81 d9 a3 3b f6 d2 83 3d 31 19 33 3e ce 30 57 3e
       0.0050002937 0.06436722 0.17490079 0.21014711
0000c0 7e 9e 35 3e 6d 34 08 3e df 5d 05 3e 8c 8f b1 3d
       0.17736241 0.13301249 0.1302409 0.086699575
0000d0 80 1e 4e 3c 09 fa 10 3d b4 1b 09 bd 80 d1 a9 39
       0.012580514 0.035394702 -0.033473685 0.00032390282
0000e0 46 41 de 3c f0 ab 9c 3c a2 84 ca 3c 1b 4c 0e 3e
       0.027130734 0.019124955 0.024721447 0.1389622
0000f0 3e b5 4b 3e 48 fd 7c 3d fb 0f 85 3d 2f ad e4 3d
       0.19893357 0.061764985 0.06497189 0.11165845
000100 b5 ce 1c 3e 8c ee 63 3c 65 3f 88 bd b1 d0 2e 3d
       0.15313227 0.0139118545 -0.066527165 0.042679492
000110 d3 1e 5c 3d e2 e4 1b 3d dd 1f 5c 3c d1 f7 50 3d
       0.053740334 0.038060077 0.013435331 0.051017586
000120 f5 49 ae 3c 64 96 d2 bc f7 e4 48 3d c8 a6 83 3e
       0.0212755 -0.025706477 0.049046483 0.25713181
000130 fb 38 97 3e 11 c2 a2 3e 2b 58 8a 3e 46 5d 32 3e
       0.2953566 0.31788686 0.27020392 0.17418393
000140 e2 f1 5f 3d a9 37 13 bb 40 af 89 3c 52 46 f8 3c
       0.054674037 -0.0022463596 0.016807199 0.030306969
000150 ba f3 0b bd 9a 3f 8c bc 8f 10 a9 3d ce 32 fe 3d
       -0.034167983 -0.017120171 0.082551114 0.12412034
000160 d0 43 91 3d 38 0e 89 3c 1f f1 23 3e 85 07 20 3e
       0.07093012 0.016730413 0.16009949 0.15627868
000170 8b 57 eb 3d cf 3c 89 3c 7a e6 50 bb 45 92 00 bd
       0.11491307 0.016752629 -0.0031875656 -0.031389493
000180 b4 aa cb 3c 93 d7 c3 bd 2e b6 1c be 14 08 4b be
       0.024861671 -0.09562602 -0.15303871 -0.198273
000190 b5 1c 68 be cd 45 16 be ea ea 9e 3b 1c 9a ce 3d
       -0.22667201 -0.14675064 0.0048497813 0.10087988
0001a0 16 27 b4 3d 4c 67 68 bd 07 ac e3 3b 76 a6 9d 3d
       0.087965176 -0.056739137 0.0069479975 0.076977655
0001b0 1b 2d e6 3c 19 63 77 3c 9a 04 7f bb 00 57 f3 bb
       0.02809768 0.01509931 -0.0038912655 -0.0074261427
0001c0 aa 23 d5 bc c0 17 c2 3b 38 59 ac 3d 37 ae 07 3e
       -0.026017983 0.0059232414 0.084154546 0.13250051
0001d0 18 e5 63 3d 4f a7 f4 3b e3 77 90 3d b7 c2 4b 3b
       0.055638403 0.007466234 0.070541166 0.00310914
0001e0 20 58 b1 bd 74 ee b0 bd 60 32 d7 bd b0 6a 09 be
       -0.08659387 -0.08639231 -0.10507655 -0.13419604
0001f0 92 7e da bd 24 87 16 bc d0 ae 9a bc b6 ea cc bd
       -0.106686726 -0.0091874935 -0.018882185 -0.10005705
000200 11 5a 19 bd 66 5f 63 bd 4a 69 1d 3d 51 d4 18 3e
       -0.03743941 -0.0555109 0.03843049 0.14924742
000210 4c 33 57 bc 40 82 b5 bd 33 cc 59 be 8f c6 02 be
       -0.013134789 -0.08862734 -0.21269302 -0.12771057
000220 f0 a0 f8 bd 8c cd 97 bd 21 b2 0a bd a4 6a 02 bc
       -0.121400714 -0.07412252 -0.033861283 -0.007959995
000230 5c db ef bc b0 83 49 3c 63 ee 4a 3e 79 79 a4 bb
       -0.029279403 0.012299463 0.198175 -0.0050193635
000240 d9 81 4c 3d b0 1a a2 bc 8a d9 32 3a 51 5a c0 3c
       0.04992852 -0.019788116 0.0006822577 0.023480566
000250 c1 e0 8f bd 4b 66 25 bc 8c f5 e5 bd 8d 9b cc bd
       -0.0702529 -0.010095189 -0.11228475 -0.099906065
000260 79 a1 df bd 7a 9f 4a bd f5 68 d2 bd ac 66 02 be
       -0.1091947 -0.049468495 -0.10273925 -0.12734479
000270 5e 39 1a be 56 19 fe bd ae 8d 00 bc 7c 63 b4 bc
       -0.15060946 -0.12407176 -0.007846279 -0.022020094
000280 16 2b 06 be 69 53 4a be 29 ab a0 be 59 96 8b be
       -0.13102373 -0.19758381 -0.31380585 -0.27263144
000290 5d 19 22 be 79 f5 17 be b3 bb 96 bd 16 aa 9c bd
       -0.15829988 -0.14839734 -0.073600195 -0.07649629
0002a0 5c 90 0a bd d8 36 90 bd 39 8e ac 3b 06 88 80 3d
       -0.033829078 -0.070417106 0.0052659777 0.062759444
0002b0 4b b8 1c 3c 0d e1 9c bd 7e 34 05 bd 94 2b 0d 3d
       0.009565423 -0.076601125 -0.032520764 0.034465387
0002c0 2e d6 6f bd b4 e2 9d bc d7 e6 88 bd 12 58 e2 bd
       -0.058553867 -0.01927314 -0.06684654 -0.11051954
0002d0 2a fc ef bd f6 10 88 bd c3 67 ca 3a 9a cb 9b bd
       -0.11718018 -0.0664386 0.00154423 -0.07607193
0002e0 6c ce 20 3d 8d 8b 06 3e c3 60 1a 3e cb 7c b0 bb
       0.03925936 0.13139172 0.15075974 -0.00538597
0002f0 a3 2f 4e bd e5 b1 b7 bd 7b 63 1f be b8 22 81 be
       -0.0503384 -0.089694776 -0.15565293 -0.252218
000300 39 d5 8d be 35 ba 0d be c1 bd 82 bd b9 5e 87 bd
       -0.27701738 -0.13840564 -0.06383849 -0.06609864
000310 d6 97 f2 bb 92 6b 23 bd 77 09 af ba 1f 08 91 3d
       -0.007403354 -0.03989751 -0.0013354261 0.07081627
000320 c1 f3 95 bc dc 83 25 be b4 de 1c bd a7 83 02 bd
       -0.018304707 -0.16163582 -0.038298324 -0.031863835
000330 15 64 08 be 98 2d 11 bd 3d 6b b1 bd 37 4a f2 bd
       -0.13319428 -0.035443872 -0.08663032 -0.118305616
000340 f2 59 19 bd 8e 0a 07 3d 0e 08 04 3d c1 a9 32 3d
       -0.037439294 0.03296905 0.032234244 0.04361892
000350 c4 39 ce 3d 63 75 31 3e 7d 57 0d 3e 87 58 fc 3c
       0.10069612 0.17329936 0.13802905 0.030803932
000360 28 39 69 3c c0 63 89 bd 38 92 10 be 70 23 8e be
       0.0142348185 -0.06708479 -0.14118278 -0.27761412
000370 91 53 ad be 93 47 52 be c9 5e 59 bd 58 90 27 be
       -0.3385282 -0.20535116 -0.05306891 -0.16363657
000380 38 af 90 bd 7d 23 b3 3d fa e8 aa 3c f9 2f 38 bd
       -0.0706467 0.08747003 0.020863045 -0.044967625
000390 80 f1 90 bc 47 4a aa bd 28 1f ad bc 0d 5d e7 3c
       -0.017693281 -0.083149485 -0.02113302 0.028242612
0003a0 13 6b 2d 3c 84 d4 a2 3c 50 1c 87 bc fc 22 81 bd
       0.0105846105 0.019876726 -0.016492993 -0.06305501
0003b0 27 f1 59 bd cc f8 c8 bc 2c 2b 28 3d f4 77 53 3d
       -0.053208496 -0.024532698 0.041056797 0.051628068
0003c0 51 f2 72 3d 11 fd 1f 3e ab ed eb 3d 67 c0 0b 3d
       0.059313122 0.15623881 0.11519941 0.034119036
0003d0 ec c3 9c bd 8f 44 0a be 68 e9 64 be 26 79 8f be
       -0.07654557 -0.13502716 -0.22354662 -0.28022116
0003e0 56 ed 80 be e5 01 86 be b2 38 ed bd d6 71 38 be
       -0.25181073 -0.2617332 -0.115830794 -0.18012175
0003f0 56 9a 2c 3d 36 67 18 3e 84 d5 1b 3d 58 cd 0a bd
       0.042139374 0.14883122 0.03804542 -0.033887237

fc1.bias f4 [128]
000000 68 cb c6 3d a1 6c 1d 3e f2 b6 8a 3c b3 0b 89 3d
       0.097067654 0.1537347 0.016932938 0.066916846
000010 d9 c3 36 bd b4 65 7b 3c 74 fe dd bb 92 40 41 bb
       -0.04462037 0.015344072 -0.006774718 -0.002948795
000020 71 ce 9d 3c 3a cb 8d 3d ca 4a c0 3d 74 73 19 bd
       0.019263478 0.06923528 0.09389265 -0.03746362
000030 56 32 84 3c 8f da 51 bd e6 44 91 3e 80 17 3a 3e
       0.016137283 -0.051233824 0.28372878 0.18173027
000040 c2 61 ce 3c 73 b9 ca 3d 13 f7 9e 3d 16 ca e2 bc
       0.025193099 0.09898653 0.077619694 -0.027684253
000050 b9 f2 f9 3d 82 62 c4 bd 74 52 15 3e 20 fa 50 3d
       0.12204499 -0.095891014 0.14582235 0.051019788
000060 1c 8f 40 3c 36 b1 89 3d 68 be a7 bc a3 11 8d 3c
       0.01175287 0.067232534 -0.020476535 0.017220324
000070 cd e8 11 3e 2a df 2a 3d 80 5e 99 bd 09 b8 b1 bd
       0.14248963 0.041716732 -0.074887276 -0.0867768
000080 51 1d 62 bc 2f 7e 85 3d e0 e3 28 bd 7e 59 46 3e
       -0.013800935 0.06518208 -0.041232944 0.19370076
000090 0d 41 14 bd 66 92 7d 3b 78 61 ec 3b 3b 2f eb 3c
       -0.03619485 0.0038691997 0.0072137676 0.028709045
0000a0 b5 cd 44 be a3 1a 12 bd fe db 4b 3d e6 97 fb 3d
       -0.19219096 -0.035669934 0.049770348 0.12284832
0000b0 47 b2 64 bd 4f 9f 2a bd b0 11 08 be 01 b3 33 3a
       -0.05583408 -0.041655835 -0.13287997 0.0006854982
0000c0 2d ff 24 bd 42 fc 08 3e 7a 11 df 3c d0 27 b0 3d
       -0.040282417 0.13377479 0.027230013 0.08601344
0000d0 b1 3d 95 3c 2e 5e db bd f4 e4 3a bd 15 b6 fb 3d
       0.018217893 -0.10711323 -0.045628503 0.12290589
0000e0 26 b9 8b 3d 1c 63 cc bd fe ca 78 3d 27 75 81 3d
       0.06822424 -0.09979841 0.060740463 0.06321173
0000f0 dd 62 69 3c 96 e2 45 be c8 1c 4c bb d5 33 36 bd
       0.014244762 -0.19324717 -0.0031145085 -0.044483025
000100 9c 3d 7e 3d 51 6a e2 3d 40 aa 67 3d 6a 0e 06 3d
       0.062070474 0.110554345 0.056558847 0.03272859
000110 66 ee 26 3e 9e 34 0c 3e de f9 22 bc 52 b3 5f 3d
       0.1630188 0.13691947 -0.009947268 0.054614373
000120 bb 78 ff 3d 46 b0 65 3d bd 45 79 bc 7c 00 87 bd
       0.124741994 0.05607631 -0.015214381 -0.06591889
000130 af c5 43 3e 28 98 0d bb e6 e3 cc 3d 06 ca 56 3e
       0.19118379 -0.0021605585 0.10004406 0.20975503
000140 43 16 33 bd ba 2e 37 3d 08 03 e2 bc 47 f9 a7 3d
       -0.043722402 0.044722296 -0.027589336 0.08201843
000150 c1 e0 52 3e bd bc c1 3d b7 9b 86 bd d4 35 1f 3d
       0.2059355 0.09459827 -0.06572669 0.038869694
000160 f7 2e c2 3b 13 59 ba 3c ea e2 f6 bb 3f 4b 52 3d
       0.005926009 0.022747552 -0.0075343745 0.05134129
000170 7c d2 84 3d 38 aa 9c bd ae 72 98 bd 63 49 5b 3d
       0.06485459 -0.07649654 -0.074437484 0.053536784
000180 46 08 cf 3c fc ea e7 bd 3f 42 74 3d d2 4e a9 3b
       0.0252725 -0.113241166 0.05963349 0.005166867
000190 f9 bd 44 3d 8a 2a 90 bd 67 dd 7e 3d 7f f4 d9 bc
       0.048032735 -0.07039364 0.062222864 -0.026605843
0001a0 0b 62 11 bd cf 99 18 be f2 5b e2 bd 8b 98 85 3d
       -0.03549389 -0.14902423 -0.110526934 0.06523236
0001b0 19 09 9a bc 3d 57 b9 3d 2a a1 0c 3d b2 ac b2 3d
       -0.018803166 0.090498425 0.034333386 0.08724345
0001c0 b2 ac ff 3d 6c 9f e1 3d de 19 2a bd cf e6 5b bd
       0.12484111 0.110167354 -0.041528575 -0.053686913
0001d0 85 28 13 bd 90 35 0c 3d 82 98 81 3d 54 a4 14 bd
       -0.035927314 0.03423077 0.06327917 -0.036289528
0001e0 c5 27 10 3e c3 77 a3 3d 09 af 0c bd db ec e9 3d
       0.14077671 0.07981827 -0.034346614 0.1142213
0001f0 ca f1 13 3e de 88 f6 bb 58 7c 15 bd 53 be 02 3b
       0.14447704 -0.00752364 -0.036495537 0.0019949868

fc2.weight f4 [10, 128]
000000 2a 2b dc 3c 30 7d 06 bf 50 8e 11 bf 56 dc 3e 3e
       0.026876051 -0.5253477 -0.56857777 0.18638739
000010 9e 18 cf be c8 12 13 bc 91 3f 6e 3d cd ad 90 3d
       -0.4044847 -0.008976646 0.05816609 0.070644
000020 42 b9 4c be a4 37 2c bd 81 20 79 3d 14 f1 2d 3c
       -0.19992545 -0.04204525 0.060822014 0.01061656
000030 e4 e2 db bd ac 1f 9f 3c d1 02 17 be 66 64 a5 bd
       -0.10736635 0.019424282 -0.14747168 -0.0807579
000040 2d 0c 81 bd 75 95 d3 bd 56 0a 83 be 33 c8 d2 be
       -0.063011505 -0.10331241 -0.25593823 -0.41168365
000050 54 19 47 3e 7b 3a f9 3d d6 05 c6 be b5 07 13 3e
       0.19443256 0.121693574 -0.38676327 0.14358409
000060 d5 1a 4d 3e e8 0c 58 bd 55 03 35 bd e7 13 e8 3d
       0.20029767 -0.052746683 -0.04419263 0.11331921
000070 63 89 08 bf 90 e3 ae 3d 48 66 58 3e 84 db d6 be
       -0.53334635 0.08539498 0.21132767 -0.41964352
000080 b3 7c 08 3e 2e 42 84 bd 6a 01 9d ba 45 dc c7 bd
       0.13328819 -0.06457935 -0.0011978571 -0.0975881
000090 fc 16 8a bd 1f 85 74 be 0c 0a 6a bd 77 41 c8 3d
       -0.06742665 -0.23878907 -0.057138488 0.097781114
0000a0 86 4b e0 3c 55 88 71 3d c5 15 36 be f5 98 b4 bd
       0.027379762 0.058967907 -0.17781742 -0.08818237
0000b0 ad d7 de 3d 70 44 1c bb 6b e5 41 3e d5 68 ba be
       0.10880981 -0.0023844503 0.18935172 -0.36408105
0000c0 d7 0c 01 bd e7 2f 9d ba c0 9b 27 bd ca 76 05 be
       -0.031506386 -0.0011992425 -0.04092002 -0.13033596
0000d0 ca 80 c6 be a8 43 df 3d e5 5b f8 bd ab 2a a4 3d
       -0.38770133 0.10901576 -0.121269025 0.08015951
0000e0 cd 98 05 3e 6d 27 ce 3d 34 08 0c bd 94 8b da 3d
       0.1304657 0.100661136 -0.03418751 0.10671154
0000f0 6f 0d e0 be b3 06 f8 3d d1 6f 3f bd 1a 52 ec be
       -0.4376025 0.12110653 -0.046737496 -0.4615639
000100 0f b1 f4 3d 26 fc 57 be dd f8 d4 3d d9 f1 af be
       0.11947834 -0.21092281 0.103990294 -0.34364203
000110 a1 18 ab be 4c 22 5e be e0 09 d7 3d bc 85 63 3e
       -0.33417228 -0.2169277 0.104999304 0.22218984
000120 18 a2 26 be a0 56 1f be cc b7 44 3e 10 21 e5 ba
       -0.16272771 -0.15560389 0.19210738 -0.0017481167
000130 70 2c 9b 3d 67 50 58 bd 81 49 f4 3d 64 20 94 be
       0.07576835 -0.052811053 0.11928082 -0.28930962
000140 be 2e 18 3e 5b c3 e8 3d 24 93 0c be 30 ff 3d be
       0.1486158 0.11365386 -0.13728005 -0.18554378
000150 d4 90 dd be fb c1 13 be e2 ee 22 be 22 05 82 3c
       -0.43274558 -0.14429466 -0.15911439 0.015871588
000160 89 aa 14 3e b7 b2 04 3c 40 63 5a 3d a8 50 25 3e
       0.14518179 0.00809925 0.05331731 0.16144049
000170 7b 97 8c 3c ad 04 be 3d 01 dd 00 3e 11 3b f7 3d
       0.017162075 0.092782356 0.12584306 0.12071813
000180 ea 36 12 be 7d c7 3e 3e c9 ea 78 be 3b c9 01 be
       -0.1427876 0.18630786 -0.24308313 -0.1267442
000190 2f 9c ad 3c 5c 8e 29 3c 7a fb e3 3d 2a a4 8b 3d
       0.021192638 0.0103488825 0.1113195 0.06818421
0001a0 5e 2b 17 3e 43 c3 b7 3b 5d e5 d8 3d 42 71 c0 3d
       0.14762637 0.005607994 0.105906226 0.09396602
0001b0 ab 5b a3 3c 2b d5 cb be 75 13 4b be 1c dd 54 bd
       0.019941172 -0.39811072 -0.19831641 -0.05196868
0001c0 e8 4d 31 be 0e 7e 9c be 0a 9b 38 bd 9e 81 1d bc
       -0.17314875 -0.30564922 -0.04506973 -0.009613423
0001d0 df 57 bc 3d 3c 2e ec 3d 78 b1 e1 3d 1e ad a7 bd
       0.091964476 0.11532256 0.110201776 -0.08187316
0001e0 b3 e5 88 3d 78 ac c9 ba c8 32 9b bd ac 6d 91 3d
       0.06684437 -0.0015386483 -0.07578045 0.071009964
0001f0 36 76 d8 be 75 8c 48 3e 66 83 de bc ca 64 5b 3d
       -0.42277688 0.1958483 -0.027162265 0.053562917
000200 5e 70 b4 3e 20 c4 b6 bd 84 9d b8 3d 90 26 85 3e
       0.3524198 -0.089241266 0.09014419 0.26005983
000210 63 32 9e 3d c5 cf 4c 3e a7 a9 0f 3e 25 95 4b be
       0.07724454 0.20001133 0.14029561 -0.19881113
000220 75 ba 32 bd bd a1 09 3c f8 d4 cd bd d1 db 80 3d
       -0.04363485 0.008400378 -0.10050386 0.06291927
000230 c8 18 43 3c 32 36 49 3d 6e 91 79 3e 1c dd cb 3d
       0.011907764 0.04912395 0.24371883 0.09954283
000240 bc 01 f2 bd a5 be 1f 3e 11 28 30 3e 68 0f b1 be
       -0.11816737 0.15600069 0.17202784 -0.34582067
000250 34 6b 51 be 21 8b 68 3d a7 c4 a7 3e fa 8d 55 3e
       -0.20451051 0.05677331 0.3276722 0.20854941
000260 d4 f8 36 be d4 d3 b2 be 90 5a 44 be b7 6a e3 be
       -0.17868358 -0.34927237 -0.19175172 -0.44417354
000270 9a 0b 5d 3d c1 f5 4e 3e 9c fe 5e 3d 00 6e 5f 3d
       0.053966142 0.20210935 0.054442033 0.054548264
000280 42 ef ae be 6b 58 18 be 58 42 93 3d 67 c1 dd 3d
       -0.34166914 -0.14877479 0.071903884 0.10827904
000290 47 75 c2 3d c7 91 1a be 00 c8 85 bd 40 8b a0 3d
       0.09495025 -0.15094672 -0.065322876 0.0783906
0002a0 56 a5 4d be 44 91 c0 bd 76 56 13 3e ea d5 39 3e
       -0.20082602 -0.09402707 0.14388451 0.18148008
0002b0 a6 61 60 39 e0 bc b1 3d 25 f9 6c be 83 34 21 3e
       0.00021398682 0.08678603 -0.23141916 0.15742688
0002c0 f8 56 2d 3d b0 2b c7 3e f4 7a 89 bd c1 cb 1b be
       0.042319268 0.38900518 -0.067129046 -0.15214445
0002d0 b9 c2 ac 3e 3b 48 8b be 12 b2 82 3b 16 99 03 be
       0.33742312 -0.27203545 0.003988513 -0.12851366
0002e0 ba 5e ec bd 55 0d 80 3d 95 15 34 be b1 c9 fd 3d
       -0.11541505 0.06252543 -0.17586358 0.12391985
0002f0 4e 73 54 3e 03 02 5b be cc 89 0e 3e 7d 4a 3f 3e
       0.2074711 -0.21387486 0.13919753 0.18680759
000300 9b 6b 9e 3d fe 8d bb be da 02 10 be 90 d4 08 bc
       0.07735368 -0.3663177 -0.14063588 -0.00835146
000310 4f ef d8 be 09 1c 80 ba 6e 33 13 3c c9 75 9e 3e
       -0.42370078 -0.000977398 0.00898443 0.30949238
000320 0d 42 39 3e 93 eb 87 bd b2 47 09 be b5 e2 1a 3e
       0.18091603 -0.06636729 -0.13406256 0.15125544
000330 c6 6e bb 3d 9f aa c0 bd 31 a2 6a be 9b 00 55 3e
       0.09151988 -0.094075434 -0.22913434 0.20801012
000340 ba 64 60 be 76 20 ed 3d 52 79 42 be 25 41 f8 3d
       -0.21913424 0.11578457 -0.18991593 0.121218
000350 4a 88 3d be 7f b4 3a 3e 7d 39 10 3e 9e 6a 98 be
       -0.18509021 0.18232916 0.1408443 -0.29768842
000360 a4 1e 2f be 1f 4f 07 be ae 53 82 3c e6 64 72 be
       -0.17101532 -0.13213776 0.015909042 -0.23671302
000370 11 5e 48 be 67 f2 7c be 41 84 2d bd 56 aa 1f be
       -0.19567133 -0.24701844 -0.042362455 -0.15592322
000380 cd 8c b2 bc af 2b 8e be 61 4f a7 3d 42 4a 30 be
       -0.021795655 -0.27767703 0.08169437 -0.17215827
000390 b7 e8 f7 3c 1e 0c 06 bc 4b 4d 0d bf fe 75 7e 3d
       0.030262334 -0.0081816 -0.55196065 0.062124245
0003a0 d1 5f 8e be 29 7f 1b be 7e fa a1 be 65 b0 ab 3d
       -0.27807477 -0.15185227 -0.31636423 0.08383254
0003b0 71 fb 7f be 98 ef 62 3d 1b 60 6a 3e df 1b d1 3e
       -0.24998261 0.055404276 0.22888224 0.40841576
0003c0 16 d2 85 be 79 09 89 3e 1f da 71 3d b0 f4 4b be
       -0.26136845 0.2676504 0.059045907 -0.1991756
0003d0 a0 33 40 be 60 dc 93 be 9e c4 49 be 83 58 f4 3c
       -0.18769693 -0.2887907 -0.1970391 0.029827362
0003e0 d8 7f fb 3e 57 14 95 be a0 1d 03 3d bf 12 00 3e
       0.49120975 -0.2911708 0.032010674 0.12507151
0003f0 76 ac c8 3d df 0e b8 bd e8 6e 02 3e 40 5e c5 3d
       0.09798519 -0.089872114 0.1273762 0.096371174

fc2.bias f4 [10]
000000 64 f7 3c be 1f 44 b0 bc 69 a3 ab bd c5 41 e5 bd
       -0.18453747 -0.021516858 -0.083807774 -0.11194185
000010 4c 43 cf 3d 77 ce ca 3d 97 aa 80 bc 4d 31 03 3d
       0.10120258 0.09902661 -0.015706344 0.03202944
000020 aa d2 96 3d 23 07 86 bd
       0.073644 -0.0654433
